part2/checkpoint.pth (torch, 22159 bytes, 6 tensors)

fc1.weight f4 [64, 8]
000000 e0 ed 70 3e d7 04 17 bf a7 82 bc bf ec 2c 1e bf
       0.23528242 -0.5899176 -1.4727372 -0.61787295
000010 c9 f6 ac 3e 39 0d eb be ea 20 b6 3e 06 16 58 3f
       0.33782032 -0.45908526 0.35571986 0.84408605
000020 42 1c 96 be 00 6a 97 3d 26 2b 96 be 83 69 8e be
       -0.29318434 0.07393265 -0.29329795 -0.27814874
000030 13 6a 0d 3f 5c c8 80 bf 8f df 9e bf e7 be 56 3d
       0.5523998 -1.0061145 -1.2411975 0.052428152
000040 66 d3 52 3f a9 86 29 be 88 4f bf bd 5b cb 88 3c
       0.8235382 -0.16555275 -0.09341341 0.01669853
000050 00 8d ab 3d 01 11 1e 3f 14 c7 95 3e 49 89 a7 3e
       0.08376503 0.61744696 0.29253447 0.32721928
000060 7a 27 53 be 02 52 91 bf 6f 00 0b 40 92 9b 67 bf
       -0.20620528 -1.1353152 2.1719015 -0.90471756
000070 2d ae e7 be d8 f4 eb bd 5e 07 8c be fc 01 be 3e
       -0.45250073 -0.115213096 -0.2734937 0.3711089
000080 21 61 58 bf e7 66 78 bf 1e fc ac 3e 34 ee 3d bf
       -0.84523207 -0.97032017 0.337861 -0.74191594
000090 ec 68 d7 be 7b c0 1d 3d bf 2a 89 3e 34 37 02 3f
       -0.42072237 0.03851364 0.26790425 0.50865483
0000a0 8e f3 3c 3e 3f 07 c7 bf 5b 02 2a 40 a7 9a bc bf
       0.18452284 -1.5549086 2.6563938 -1.4734696
0000b0 ef 61 09 bf 9c c8 c3 be 04 3c de 3d f9 a9 bc 3e
       -0.5366506 -0.3823899 0.10851291 0.3684843
0000c0 82 31 ef 3c 42 8c 2a 3e af 37 9f be c9 0b 04 3f
       0.029198412 0.16655067 -0.3109717 0.5158048
0000d0 f0 fe 0a 3e dd a7 58 bc ed d0 f7 3e a8 09 8b 3c
       0.13573813 -0.0132236155 0.48401585 0.016972378
0000e0 3e bc 13 3f 29 12 32 c0 50 91 b1 3e 0c 59 8a bf
       0.5770911 -2.7823584 0.34681177 -1.0808425
0000f0 f1 60 c4 bd 39 49 75 bd 65 7e fc 3b 46 60 8b 3e
       -0.095888026 -0.059884284 0.007705497 0.27221888
000100 fd 85 40 3e 14 b7 06 3c fc 1e d2 bd c9 57 f4 bd
       0.18801112 0.00822236 -0.10259816 -0.11930806
000110 72 e3 d6 3e d8 b8 91 3f 1f 81 c9 be bf 26 d4 bf
       0.41970402 1.1384535 -0.39356324 -1.6574324
000120 fe da 0e 3d 4b 27 01 3f f9 61 bb 3e 51 ae 9d 3f
       0.034876816 0.5045058 0.36598185 1.2318822
000130 df fe 08 bf 4f 7c 37 bf 4b 0b b6 bd a1 3c 0c bf
       -0.535139 -0.71674055 -0.08888873 -0.5478001
000140 a2 79 43 be 50 31 e8 3e f1 50 39 3b dc af af bf
       -0.19089368 0.45350122 0.0028277005 -1.3725543
000150 e0 64 64 be 1b 7f 9e 3e 8d fb 7e 3e c7 e0 2a 3e
       -0.22304106 0.3095635 0.24900647 0.16687308
000160 d3 55 84 3f 8d bd 54 be 89 a9 15 3e 72 18 21 be
       1.0338691 -0.20775433 0.14615454 -0.15731981
000170 15 85 c0 3e 68 4c 21 3c 0f d1 2f bf db 4b 26 bf
       0.37601534 0.009844877 -0.68678373 -0.64959496
000180 06 16 00 3e 9f 30 5e 3d 9c 12 09 3f 43 9e 7c be
       0.12508401 0.054245587 0.5354402 -0.24669747
000190 8a 2b 1d 3f e6 64 62 3f 81 eb f9 3e 78 6e e7 bd
       0.6139456 0.8843521 0.48812488 -0.11300367
0001a0 5c 1c 83 be e3 b5 22 bf f1 a1 14 bf 73 2c 36 bf
       -0.25607574 -0.6355879 -0.580596 -0.71161574
0001b0 e3 52 be 3e 22 d2 22 3e 72 2a 1c be 5d f5 99 3d
       0.37172613 0.15900472 -0.15250567 0.075175025
0001c0 8f 27 a8 be a0 39 83 3d 0f 4f bd 3e d1 f1 85 bf
       -0.3284268 0.064074755 0.3697438 -1.0464422
0001d0 c8 f1 34 bf 15 61 0f 3f 5f e7 fc 3e da fb 9c 3e
       -0.7068143 0.5600751 0.49395272 0.30660897
0001e0 aa 25 ee bc 3f 86 8b 3d 52 88 a3 be 43 d8 76 be
       -0.029070694 0.06812715 -0.31939942 -0.24105935
0001f0 94 bb a4 bd fa 84 7e bf c7 9d 96 bf a2 fd 47 be
       -0.0804359 -0.99421656 -1.17669 -0.19530347
000200 1a ac 47 bf d1 6e 6b bf 80 1e d0 3e 7e c4 7f bf
       -0.7799698 -0.9196597 0.4064827 -0.999092
000210 d5 18 fe bd 46 8c 44 be df ec 90 3d 39 d6 9e 3e
       -0.1240708 -0.19194135 0.070764296 0.31022814
000220 0f ee 37 3e 13 98 0d be 94 ba 9b be 02 9b 9f be
       0.17961906 -0.13827543 -0.30415785 -0.3117295
000230 11 53 80 3f b3 72 8f 3f 63 40 09 3f 45 9e 1f be
       1.002535 1.1206878 0.5361387 -0.15587719
000240 dc e2 47 be 8c a2 90 3e 02 57 92 3e 2d 1f d1 bf
       -0.19520134 0.28249013 0.28582007 -1.6337639
000250 88 0d d7 3c ee e6 8d bf 37 78 00 bf 57 d0 23 bd
       0.02625157 -1.1086099 -0.50183433 -0.03999361
000260 68 e4 60 bd 6b d5 17 bf 4f 73 d1 bc 5e 83 0c c0
       -0.054905325 -0.59310025 -0.025567679 -2.195518
000270 c5 99 d3 bd 60 d5 c2 be 79 a0 a7 3e f0 8e 44 3e
       -0.103320636 -0.38053417 0.32739618 0.19195151
000280 08 86 11 3f aa f7 03 c0 81 16 a7 be 1e 70 a3 bf
       0.5684514 -2.0619912 -0.32634357 -1.276859
000290 39 39 14 be c4 f2 85 be b3 41 e2 3e 26 34 e7 bd
       -0.14474954 -0.26161778 0.4419075 -0.112892434
0002a0 6d a9 24 3e 68 03 e0 3e 1a c7 05 40 f7 b2 5f bf
       0.16080256 0.437526 2.0902772 -0.87382454
0002b0 9e b8 21 3f 1c 14 85 bd 40 73 ad bd 7a 5f c1 3e
       0.6317233 -0.06497976 -0.08469248 0.37768155
0002c0 df ce be be 46 ac 4d bf eb d1 d2 3f 0b a4 1c bf
       -0.37267205 -0.80340993 1.6470312 -0.6118781
0002d0 fd a2 ee be 93 8c 21 be 93 db 73 3e e6 ab fd 3e
       -0.46608725 -0.15776281 0.2381423 0.4954521
0002e0 44 40 24 3f db 2b d7 bf 6b cf 7c 3f fa 22 ca be
       0.6416056 -1.6810259 0.98753995 -0.3947981
0002f0 5e 91 56 bf 9b 00 ac 3e 9d bb a1 3e 6b 6a a6 3e
       -0.8381556 0.33594212 0.3158845 0.32503065
000300 de 22 53 bf 60 94 fa be b8 67 72 bf 05 d8 1b bf
       -0.8247508 -0.48941326 -0.9468951 -0.60876495
000310 75 00 5f 3e 5a ab 22 be 97 69 7d be 09 b9 66 3e
       0.21777518 -0.15885678 -0.2474731 0.22531523
000320 5c 07 80 3e 46 bc dd bf 9a ab cc bf 18 1c 4d be
       0.25005615 -1.7323081 -1.5989869 -0.20030248
000330 b7 b5 36 3d 32 84 e7 3d 71 95 26 3e 8c 60 01 3f
       0.04460689 0.11304511 0.16267945 0.50537944
000340 3a 66 39 3f c8 4c f9 bf 72 99 4b 3f 20 d4 3c be
       0.7242161 -1.9476557 0.79531014 -0.18440294
000350 0d 75 0a bf 69 1e cb bd fa df b8 3d e7 fd 9d 3e
       -0.54084855 -0.0991791 0.09027095 0.30857775
000360 da 91 82 3e 4b 11 cd bf 64 50 3e 3f e9 f6 b3 bf
       0.255019 -1.6020902 0.74341416 -1.4059726
000370 89 56 99 bc cd 26 a8 3e d8 1b bf 3e 8c bb 48 be
       -0.018718021 0.32842103 0.3732593 -0.19602793
000380 30 f3 8c be 68 14 8f 3f d3 51 73 bf fd cb 77 bf
       -0.27529287 1.1178102 -0.9504673 -0.96795636
000390 ad c0 28 3e 12 36 a7 be eb 21 67 3e 6b 90 34 bd
       0.1647975 -0.3265844 0.22571532 -0.04408304
0003a0 28 bb 9c be a0 6a 9e 3e a6 2a 0f 40 ad 0d a2 bf
       -0.3061154 0.30940723 2.236978 -1.2660424
0003b0 d7 52 6a 3f 5c 59 6f bf bc 9a c8 3c eb f8 cb 3d
       0.91532654 -0.93495727 0.024487846 0.09959587
0003c0 b7 6d f7 3e d2 93 b9 bd 53 45 04 bf 81 98 16 3e
       0.48325893 -0.090613976 -0.5166828 0.14706613
0003d0 c5 bd 16 bf 10 7e b0 bf 6f 87 b8 3e 32 67 6b be
       -0.58883315 -1.3788471 0.36040828 -0.22988585
0003e0 ee a4 8b bf b2 73 66 bf 5a d6 94 be 36 8f 2f bf
       -1.0909708 -0.9002029 -0.29069787 -0.685779
0003f0 d8 74 06 3f 17 71 5b 3e 2d b0 35 3c 86 69 1e bf
       0.5252204 0.21429859 0.011089367 -0.61879766

fc1.bias f4 [64]
000000 cb 9b c6 bd 61 66 bb bc 9d 75 70 3e 7c 3d 16 be
       -0.09697684 -0.022875967 0.23482366 -0.14671892
000010 ea 1e e1 be ac 14 6c be f0 b6 82 3f e9 74 90 be
       -0.43968898 -0.2305476 1.0212078 -0.28214195
000020 3e e8 3d 3e e5 f9 1d 3f 93 fa 5e 3f 93 cc 12 be
       0.18545625 0.61709434 0.87101096 -0.14335851
000030 69 38 d4 be 8a c7 33 bf 2b e9 2d 3f f2 ad 21 3e
       -0.41449288 -0.7022635 0.6793391 0.15789011
000040 25 2a 00 be 61 4c dd be 39 38 64 3f cc 3d 1a 3f
       -0.12516077 -0.43222335 0.8914829 0.60250545
000050 05 7e b1 be 80 a8 c4 be 72 23 ff be e4 64 c7 be
       -0.34666458 -0.38409805 -0.4983173 -0.3894416
000060 a2 f2 a5 be fa de 06 bf db 52 00 bf b0 f6 36 be
       -0.32411677 -0.52683985 -0.5012643 -0.17867541
000070 ea d5 c5 3d 40 ff b6 bc df 3b c1 be 15 30 55 be
       0.096599415 -0.02233851 -0.3774099 -0.20819123
000080 ab a3 20 be c9 40 75 3e ca 46 86 be e7 73 86 3e
       -0.15687434 0.23950495 -0.26225883 0.262603
000090 95 e7 10 bd 40 13 bd bd 97 be ab be 7c 83 8c be
       -0.035377104 -0.09232187 -0.33543846 -0.27444065
0000a0 fc 1f 96 3e bf d3 79 be c1 a6 9c 3e a9 46 11 bf
       0.29321277 -0.24397181 0.30595973 -0.56748444
0000b0 e8 84 ae 3e 33 26 dc bd fd 6e 8e 3f e2 1a f0 3e
       0.34085774 -0.107494734 1.1127621 0.4689551
0000c0 64 c5 78 be 15 d6 bf bc b8 b1 0e 3e 3d ac 88 3f
       -0.24294049 -0.023417512 0.13934982 1.0677563
0000d0 70 dc 95 3c e3 31 36 3f 2c 2c c7 be 73 87 79 3e
       0.01829359 0.7116987 -0.38900888 0.24368076
0000e0 e6 16 d1 3e 31 e7 f3 be 6a da 02 3f ee 11 3a be
       0.40837783 -0.47637323 0.51114523 -0.18170902
0000f0 69 c0 d8 3d 03 a1 50 be d3 8d 9e 3e ac db 11 3f
       0.10583574 -0.20373921 0.30967578 0.5697582

fc2.weight f4 [64, 64]
000000 6d db 83 bd 71 2f 07 be 3b eb 4c 3e 2a ce 60 3f
       -0.064383365 -0.13201691 0.20011608 0.8781458
000010 38 c4 01 3f 9e e7 61 3e 13 38 01 bc 29 0c 98 3f
       0.5069003 0.22061011 -0.007886904 1.1878711
000020 15 43 50 3f 17 c0 1f be 90 52 29 3e e5 78 8b 3f
       0.8135236 -0.1560062 0.16535401 1.0896269
000030 18 1c 37 3f 0e cc 0a 3f 61 14 7a 3c d9 f1 6a 3c
       0.7152724 0.5421761 0.015263648 0.014339888
000040 c9 ce 94 3e b9 28 60 3f ee 38 a4 bc f2 cd d5 bd
       0.29064015 0.8756214 -0.020046677 -0.104396716
000050 9f 71 87 3f 18 72 d0 3e 06 52 23 3f 71 73 42 3f
       1.058155 0.40712047 0.6379703 0.759574
000060 58 ca f3 3e ed 9b 49 3f 8b 93 7e 3f 63 6e 54 3e
       0.47615314 0.7875355 0.9944388 0.20745234
000070 cd 93 55 bd d9 b5 0f bf 8a ad 67 3e 5b 69 bc 3f
       -0.052142907 -0.5613685 0.22624794 1.4719652
000080 b9 cd 98 be 77 8e bd 3e e5 f9 73 3f 15 55 96 bd
       -0.29844454 0.37022755 0.95303184 -0.07340447
000090 f0 d9 73 bf 4a 5d 31 3f 30 9d 35 3d 3f 83 60 3f
       -0.9525442 0.6928297 0.04433936 0.87700266
0000a0 e4 ad 0f 3e 0e 94 57 3f c0 dc 30 3f 84 cc 3a be
       0.14031178 0.8421029 0.6908684 -0.18242079
0000b0 06 35 87 3c 90 d1 67 3f 1f c9 da 3c 7b 71 01 3e
       0.016504776 0.9055414 0.02670723 0.12640946
0000c0 9b 7e d8 be 94 13 40 3f a2 77 91 be bf 7e 53 3e
       -0.42284092 0.75029874 -0.28411585 0.20653819
0000d0 67 c3 71 be bc 21 46 bf 55 7e dd 3e 42 2e 08 be
       -0.23609696 -0.77395225 0.43260446 -0.13298896
0000e0 e0 16 0a bd 53 56 71 3e f0 f0 c2 bd 53 33 7f 3f
       -0.03371322 0.23568086 -0.095186114 0.9968769
0000f0 d5 d6 40 be 3b 03 2c 3e fa d9 e9 be 5c f1 b9 be
       -0.18831952 0.16798107 -0.45674115 -0.36316955
000100 d8 f2 e3 bd 05 4b 88 be 11 f1 6c 3e ac d3 01 3f
       -0.11130303 -0.26619735 0.23138835 0.5071361
000110 14 05 aa 3e 7f 38 47 3e 65 f8 43 3e 7d 9e 8a 3f
       0.33207 0.19455145 0.19137724 1.0829617
000120 d1 0a 38 3f c5 6e 0e 3b 09 95 57 3e b2 c2 23 3f
       0.71891505 0.0021733504 0.21052946 0.63968956
000130 af dd 3c 3f 02 86 b5 3e 8b c3 dd bd dd 46 9e be
       0.7377576 0.35453802 -0.108283125 -0.3091344
000140 b9 5d 86 3e bd dc 4c 3f 5d d7 58 be b0 30 54 be
       0.2624338 0.8002432 -0.21175905 -0.20721698
000150 07 2e 76 3f 1c a7 28 3e ab fd f9 3e 84 96 c1 3e
       0.9616398 0.16469997 0.48826346 0.37810147
000160 b1 98 14 3f 0f 29 ba 3f 42 8d 5a 3f ee 29 5d 3e
       0.5804549 1.454378 0.8537179 0.21598026
000170 e0 78 1d 3e ba e6 10 bf ab 91 4b be 2a 6f a6 3f
       0.15378141 -0.5660206 -0.19879787 1.3002675
000180 ff 6a 70 be a2 40 b2 3e 1b 4f 81 3f 37 cf 3c 3e
       -0.23478316 0.34814936 1.0102266 0.18438421
000190 c5 51 99 bf a5 f1 ee 3e ca 4f af 3d 45 c3 0f 3f
       -1.1978079 0.46668735 0.085601404 0.5615733
0001a0 3d 45 89 3e 93 93 22 3f 59 09 34 3f 0b c0 3f be
       0.26810637 0.6350643 0.70326763 -0.18725602
0001b0 97 bf 20 3e e5 72 43 3f 95 62 cd 3d c1 3e f3 3d
       0.15698086 0.7634719 0.10028569 0.11877204
0001c0 26 21 78 bf d8 8a 5f 3f 7e 4c be bd 67 8c 5c 3e
       -0.9692558 0.87321234 -0.092919335 0.21537934
0001d0 bb 32 90 3e e0 43 29 bf 3b 7f 78 3e c7 c6 c8 be
       0.28163704 -0.66119194 0.24267285 -0.39214155
0001e0 30 e6 1d bd 17 ae 86 3e 1f 09 f4 bd db ff 5c 3f
       -0.038549602 0.26304695 -0.11915802 0.86327904
0001f0 9c a4 81 be a0 7b 5c 3e d4 5a fa be 37 59 dc be
       -0.253209 0.21531534 -0.4889742 -0.43036816
000200 b6 ec b3 be 02 7b 85 bd 30 80 7d bd e0 6b 68 3f
       -0.35141534 -0.065176025 -0.061889827 0.90789604
000210 96 b8 e1 3e e3 0d a4 3e 88 28 14 be 12 24 35 3f
       0.4408614 0.32041845 -0.14468586 0.70758164
000220 b5 53 da 3e 23 f7 0d 3e 10 2b b8 3e fe 4e 1b 3f
       0.42641988 0.13863806 0.35970354 0.6066741
000230 33 b0 fe 3e 3b 1a 36 3f 91 94 32 3e c1 18 89 3e
       0.49743804 0.71133775 0.17439486 0.26776698
000240 49 c2 c8 3e 3e 2f 9c 3e 85 91 94 3e 00 f3 82 be
       0.39210728 0.30504793 0.29017273 -0.2557602
000250 3d df 6a 3f e4 95 80 3e 2f 8d 42 3f 3f 9e 07 3f
       0.91746885 0.25114357 0.7599668 0.5297584
000260 69 b6 1f 3f c5 76 a2 3e 09 40 87 3f bf 5e e8 3e
       0.6238771 0.3173124 1.0566417 0.45384786
000270 93 92 7d 3e 5b 78 0d bf 9b 25 3f be a5 08 b6 3f
       0.24762945 -0.5526177 -0.18666689 1.4221388
000280 0a 8f 91 be 13 31 99 3d db 6a 2a 3f 53 d7 8a be
       -0.28429443 0.07480063 0.665693 -0.27117404
000290 a3 ca ae bf 43 99 3e 3f cc f7 ca 3d 60 02 4d 3f
       -1.365559 0.7445261 0.09910545 0.8008175
0002a0 d6 81 db bc 32 0d 3c 3f 35 db 3f 3f 59 74 14 bf
       -0.026795309 0.73457634 0.7494386 -0.5799003
0002b0 77 87 98 be 67 d6 00 3f 4f 00 49 be bc ae 86 3d
       -0.2979085 0.5032715 -0.19629024 0.06576297
0002c0 dc 0d 52 bf 39 21 26 3f 35 48 04 bf 46 dd 3e 3e
       -0.820524 0.64894444 -0.5167268 0.18639097
0002d0 6b fd e8 3d db 6f 50 bf 8b 7f 12 be ba 43 fd be
       0.11376461 -0.8142068 -0.14306466 -0.49465734
0002e0 f2 dc 4c 3d bd ba 2a 3f 16 9c b0 bd da 43 8d 3f
       0.050015397 0.6669119 -0.08623521 1.1036332
0002f0 6f 3c 2f be 1b 3c 8e 3e 9f b8 96 be fa ab c5 be
       -0.17112897 0.27780232 -0.2943773 -0.3860777
000300 21 d2 f4 be 36 33 4a 3f 77 53 23 be 20 28 f7 bc
       -0.47816566 0.7898439 -0.15949808 -0.0301705
000310 b5 46 08 3f 12 90 40 bf c8 e9 e7 3c 1d 90 10 3f
       0.5323289 -0.75219834 0.028309718 0.564699
000320 d2 37 1a 3f a3 a4 12 3f d1 8a ad 3e 81 59 6a 3f
       0.60241425 0.57282466 0.3389497 0.9154282
000330 e8 5a 05 3e 6b eb 2b 3f 23 7d 3c 3d b1 78 4a 3f
       0.13022959 0.67156094 0.046017777 0.7909041
000340 f3 22 72 3e 20 f3 10 3f 72 88 a8 3e ab 27 1a bf
       0.23646145 0.5662098 0.329166 -0.6021678
000350 d6 e1 46 be a9 b0 93 bd ad c6 75 3d 38 1c 77 be
       -0.19422087 -0.072114296 0.060003925 -0.24131858
000360 ed 71 63 3f 45 9d cb be 34 c1 37 3e 4e db 1a 3e
       0.8884571 -0.39768425 0.17944795 0.1512272
000370 e3 f5 bb 3e a5 45 7e bf 33 3a 91 be ab e1 43 3f
       0.36711034 -0.9932502 -0.28364715 0.76516217
000380 70 8a 87 be 21 b4 e3 3e 68 75 2b 3c 2a 88 b5 bd
       -0.26472807 0.44473365 0.010465004 -0.08863862
000390 bb 43 df bf 63 11 f7 3d 06 90 fe 3d fc dd 57 3d
       -1.7442545 0.12063863 0.12429814 0.052701935
0003a0 f7 91 be 3d ab 59 e0 3e 68 f0 af 3e f5 eb 0b bf
       0.09305184 0.4381841 0.34363103 -0.54656917
0003b0 cd 20 8d be c0 7b 84 3e 6f 55 77 3e d4 1c 9d 3e
       -0.27564088 0.25875664 0.24153684 0.30686057
0003c0 37 2b 01 c0 79 ea 65 3f 55 c1 b6 be c0 80 43 3e
       -2.0182626 0.898109 -0.35694376 0.19092083
0003d0 b4 a6 59 3f 2f 2a 8a bf 72 f0 32 3e 82 9b 81 be
       0.85019994 -1.0794123 0.17474535 -0.25313956
0003e0 9e 86 94 be a7 84 08 3f 25 6b 3a bd 6a b0 67 3e
       -0.29008955 0.5332741 -0.045512337 0.2262589
0003f0 41 7f d7 be 15 9c ef bc 00 ad d5 be 39 2a 6d bf
       -0.42089275 -0.02924923 -0.4173355 -0.9264255

fc2.bias f4 [64]
000000 6f 17 a7 3d 43 f6 90 bc 68 59 f2 bd 1b 72 5c 3e
       0.081587665 -0.017695552 -0.11833459 0.21527903
000010 5b 9f 8b bc d6 b2 13 bd d7 0c e0 3e c6 b5 02 3e
       -0.01704376 -0.036059223 0.43759796 0.12764654
000020 d6 c1 d7 3b f4 70 c9 bd 09 86 36 be 6e 49 02 be
       0.0065843863 -0.09835997 -0.17824568 -0.12723324
000030 5d f2 a1 3e 4e eb 3d 3e b7 93 2a bd 5f 9c 7f 3f
       0.3163022 0.18546793 -0.041644778 0.9984798
000040 1a fc 9b bb d3 86 d1 bd b8 7c 14 3f e0 0a 59 bd
       -0.0047602775 -0.10230794 0.58002806 -0.052988887
000050 97 d0 70 bd a5 41 77 bd b7 92 a8 bd aa f2 00 be
       -0.058792677 -0.060365338 -0.08231109 -0.12592569
000060 23 62 49 be e5 b9 00 be 77 c7 bd bd 34 bb 1b 3e
       -0.19666342 -0.12570913 -0.092665605 0.15208131
000070 e0 fc 43 3e 69 62 23 bd 4a be b1 3d cb d3 57 3f
       0.19139433 -0.039888773 0.08678873 0.84307545
000080 aa af 3d bb 9b 32 8b 3e d0 1c 13 be b0 f1 f8 bd
       -0.0028943815 0.27187046 -0.1436646 -0.12155473
000090 c0 1c 8d bc ee c1 9a bc e3 7d 16 be 7a 1a b0 bd
       -0.017225623 -0.018891301 -0.1469646 -0.085988
0000a0 5a 2f 39 bd f3 af d2 3e b6 b7 26 bd 0c a0 2d 3f
       -0.045211174 0.41149864 -0.040702544 0.6782234
0000b0 a7 e0 e6 bd 5f f5 a7 3d 70 d4 fb bd f5 05 4c 3e
       -0.11273318 0.08201098 -0.122963786 0.19924147
0000c0 14 90 ae bd b9 3e cc be c1 fe 27 be 4d 5a 90 be
       -0.085235745 -0.39891604 -0.16405775 -0.28193894
0000d0 ac 83 b5 3e 05 08 60 3d 48 9c 76 bc 16 d4 11 be
       0.3545202 0.054695148 -0.015051909 -0.1424106
0000e0 0f 5b 0f 3f 0a 93 18 be ad e8 5c 3e 9e 06 75 bd
       0.5599832 -0.14899841 0.21573134 -0.059820764
0000f0 b6 c7 9a be ef aa 3e be ee 33 6f 3f a9 30 54 bd
       -0.30230492 -0.18619893 0.93438613 -0.05180422

fc3.weight f4 [4, 64]
000000 45 f1 85 bf 66 d6 40 bf 03 83 61 bf 48 4e 30 bf
       -1.0464255 -0.75327146 -0.88090533 -0.6886945
000010 55 3a 98 3c da 6d 34 bf 90 7e 99 3f ff 71 99 be
       0.018582502 -0.7048012 1.1991749 -0.29969785
000020 42 88 b9 bd de 14 d0 3c dc e8 2b bf 16 36 93 bd
       -0.09059192 0.025400575 -0.6715219 -0.071880504
000030 d3 97 35 3f 91 9d 29 c0 e6 79 92 bf fa e8 b3 3f
       0.7093479 -2.650242 -1.144345 1.4055474
000040 ea a7 6d 3d da 34 94 bf 17 01 50 3e 67 9b fe be
       0.058021463 -1.1578629 0.20312916 -0.49727938
000050 1f ab 67 bf 97 0a 44 3e 4a c3 84 bf e0 2d 3b bc
       -0.90495485 0.19144665 -1.0372097 -0.011424512
000060 6a 32 08 bf 14 46 96 3f b3 64 bf 3d 73 58 93 bf
       -0.53201926 1.1740136 0.09345379 -1.1511368
000070 ae da 42 bf db f8 85 bf 19 94 56 3d a0 c1 9b 3f
       -0.7611493 -1.046657 0.05238733 1.2168465
000080 74 27 5a bf 3c 8e 0a be e3 8d e1 be a3 32 bc bd
       -0.8521645 -0.1353082 -0.44053563 -0.09189346
000090 26 ba 7f 3e 5f dd 14 bf 55 05 fe 3f bb d7 9e bf
       0.24973354 -0.58150285 1.9845377 -1.2409586
0000a0 af a2 11 bf ae cd 13 3f 7f 2e 0b bf bf bf 73 3f
       -0.5688886 0.5773572 -0.5436782 0.95214456
0000b0 ca 13 30 3d cc f3 05 bd 79 ed 86 3d 2c 7d 6d bf
       0.042987622 -0.032703206 0.06588263 -0.9276912
0000c0 f1 21 52 bf 19 20 87 bf 89 11 18 bf b3 4d 70 bf
       -0.8208304 -1.055667 -0.59401757 -0.9386856
0000d0 c3 a9 28 40 df 0f 5e bf ea b9 b1 be 97 c5 56 3d
       2.6353614 -0.8674297 -0.34712154 0.05243453
0000e0 3c 5c cd 3e 56 9e 38 bf cc cb 5c 3f a9 6f 2e bf
       0.40109432 -0.721166 0.8624847 -0.6813913
0000f0 a1 35 15 bf db 76 26 bf ea d6 ad 3f ad 05 4c bf
       -0.58284956 -0.6502511 1.3581212 -0.7969616
000100 84 73 4a bf c5 77 53 bf 2a 23 05 bf b9 32 bc bf
       -0.7908251 -0.8260463 -0.5200678 -1.4702979
000110 af 48 4a bf 30 f1 22 bf f7 d2 1e 40 4d f1 23 bf
       -0.79017156 -0.6364927 2.4816263 -0.6404007
000120 3e db 77 3d 3e d9 a3 bd ec bf 56 bf fc 9b 35 bd
       0.06051182 -0.0800042 -0.838866 -0.04433821
000130 21 ee 80 3f ae 07 0a c0 a6 ec dd be 83 e0 b1 3f
       1.0072671 -2.1567187 -0.4334461 1.389664
000140 a7 e5 f4 bc ec d1 1a bf cc 96 48 bf 6f 02 34 bf
       -0.029894663 -0.60476565 -0.783551 -0.70316213
000150 d7 53 9c 3b 6d 63 b5 3e f1 02 6b bf 40 12 7a bd
       0.0047707367 0.35427418 -0.91801363 -0.06105256
000160 26 e0 26 bf 15 fe b8 3f 80 6d 1c 3d 1a fe cd 3e
       -0.65185773 1.445254 0.038190365 0.40232927
000170 54 fe 82 bf 88 9e 2f bf d3 a0 15 bd b8 b7 8e 3f
       -1.0233865 -0.68601274 -0.036530327 1.1149817
000180 9d 3b 23 bf e4 79 6f bf 9e 38 35 bf cc 87 ff 3d
       -0.6376284 -0.93545365 -0.70789516 0.12477073
000190 f1 4f 84 be bb e4 49 bf 8f 83 01 40 fe ce 5e 3e
       -0.2584224 -0.7886464 2.0236547 0.21758649
0001a0 8e 78 4b bf 2d 4d b5 3e f9 52 31 bf 68 3e ad 3f
       -0.79480827 0.35410443 -0.6926723 1.353467
0001b0 59 d4 a6 bd 60 1a 2f 3c 04 73 9c 3d 50 6f b0 bf
       -0.08145971 0.010687441 0.07639125 -1.378397
0001c0 e2 9f 18 bf d8 75 8d bf aa 18 6a bf 41 24 15 bf
       -0.5961896 -1.1051588 -0.91443884 -0.58258444
0001d0 0a 51 34 40 56 d4 2f bf 24 b3 43 bf 48 e5 4c bc
       2.8174462 -0.68683374 -0.7644522 -0.012505837
0001e0 a1 53 29 be 0b 64 64 bf 5d 8b ce 3e 37 87 45 bf
       -0.16535808 -0.89215153 0.403407 -0.77159446
0001f0 26 2e 17 bf b5 7c d5 be 6b 6f a5 3f 5b 28 1e bf
       -0.5905479 -0.41696706 1.2924627 -0.6178033
000200 c1 63 44 bf 71 fe 19 bf 44 68 59 bf de 43 9e be
       -0.7671471 -0.6015387 -0.8492472 -0.30911154
000210 71 c6 94 3e b2 46 0c bf a5 51 b7 bf a3 95 cc be
       0.2905765 -0.5479537 -1.4321791 -0.39957914
000220 28 9b b1 3d aa dd 98 3d 11 38 a7 be c0 8a 0a 3d
       0.08672172 0.07464154 -0.32659963 0.03382373
000230 d7 79 d2 3d bf d7 a0 bf 15 9a 27 bf 44 5a 61 3f
       0.10277145 -1.256584 -0.65469486 0.8802836
000240 31 a3 de 3c e8 bc 5d bf 75 3c d6 bf b3 5b 36 bf
       0.027177425 -0.86616373 -1.67372 -0.7123367
000250 71 23 f5 3e 1a 63 1b be 88 fa 49 bf d3 80 43 3b
       0.47878602 -0.15174523 -0.78897905 0.0029831424
000260 55 70 1b bf d0 9f 07 40 cc c7 f3 bd 68 76 74 bf
       -0.6071828 2.1191292 -0.119033426 -0.95493174
000270 89 80 9c be b5 59 23 bf e4 93 48 bd a3 ab b0 3f
       -0.30566815 -0.6380876 -0.048969164 1.3802379
000280 27 e0 1c bf 73 d6 d1 be b6 fb ec be 90 32 4f bd
       -0.6127953 -0.40983924 -0.4628579 -0.05058533
000290 fc aa da 3f 97 a4 21 bf 88 13 02 40 1f ab 99 be
       1.708343 -0.6314177 2.032442 -0.30013368
0002a0 52 dd 44 bf 4b 25 a3 bf fa 3d 74 bf 46 1b b2 3f
       -0.7690021 -1.2745756 -0.9540707 1.3914573
0002b0 a0 2b 61 3c c0 fa 4d bb d6 6e 98 bd 31 2a c7 be
       0.013743311 -0.0031429976 -0.07443015 -0.38899377
0002c0 5e 5c 09 bf 1e 9e 61 bf a0 c2 14 bf a4 e6 32 bf
       -0.53656566 -0.8813189 -0.58109474 -0.6988318
0002d0 51 3e e6 3e 8c 43 3d bf 8a 44 1b bf 46 2a 8b 3c
       0.4496942 -0.73931193 -0.6065146 0.016987931
0002e0 68 52 76 3f b6 ff 9a 3d 19 02 cf 3f 1c c6 ed be
       0.9621949 0.07568304 1.6172515 -0.46440208
0002f0 f6 52 cb be e7 43 23 bf b4 c8 9a 3f 3f 11 13 bf
       -0.39711732 -0.63775486 1.20925 -0.5744819
000300 5f 4b 47 be 09 db 7d be 67 88 3e bf 66 8c a5 bf
       -0.19462346 -0.24790587 -0.74426883 -1.2933471
000310 05 1f 44 bf b0 73 6e bf 80 c9 04 40 5b 84 96 bf
       -0.7660983 -0.93145275 2.0747986 -1.1759142
000320 1f fd 62 3d f0 bc 33 bd 06 1f 22 bf 79 47 24 3c
       0.055417176 -0.043881357 -0.6332859 0.010026806
000330 92 20 8d be 20 31 f1 bf 36 ef 17 bf c0 26 b9 3f
       -0.27563912 -1.8843117 -0.5934938 1.446495
000340 15 a4 61 3c 1d 7c 02 bf e9 fe c6 3d a8 95 30 bf
       0.01377203 -0.5097063 0.09716589 -0.6897836
000350 e0 8f 75 c0 03 c3 91 be df 1a 38 bf 8b 7b c7 bb
       -3.8369064 -0.28469095 -0.71916 -0.0060877255
000360 ff ef 34 bf 5c 9a 8b 3f 01 93 6e bd 7d 22 91 bf
       -0.70678705 1.0906482 -0.058245663 -1.133865
000370 8b 6f 15 bf 5e ba 90 bf 79 88 e0 3d 6e 76 77 3f
       -0.58373326 -1.1306875 0.1096353 0.96665084
000380 e0 18 a1 bf 0b 95 71 bd ba 34 2c bf a4 61 9b bd
       -1.2585716 -0.05898003 -0.67267954 -0.07586983
000390 8c 60 04 bf 1b 2c 30 bf 46 ed 07 40 2d 95 59 bf
       -0.5170982 -0.688173 2.123857 -0.8499325
0003a0 af bd 1d bf f5 35 60 bd 51 0e 55 bf 83 1f 27 3f
       -0.6161756 -0.054738957 -0.8322497 0.6528246
0003b0 e5 74 d3 3d 68 07 d3 bd 18 68 2d 3d 80 9e b8 bd
       0.1032503 -0.10304147 0.0423356 -0.090146065
0003c0 f6 e2 33 bf b0 43 3f bd be 1a 97 be 37 3b 4c be
       -0.7026819 -0.04669541 -0.2951259 -0.19944464
0003d0 36 c2 3b 40 2c 97 cd be 3b 2e 39 bf d7 84 af ba
       2.9337287 -0.40154397 -0.7233617 -0.001339103
0003e0 fc 85 3b 3f e5 68 e7 be df fd b1 3f 84 99 26 bf
       0.7325132 -0.45197216 1.39056 -0.65077996
0003f0 7a cb 5c bf 93 c1 6f bf b7 bc bb 3f 0a e3 25 bf
       -0.8624798 -0.93654746 1.4666966 -0.6479956

fc3.bias f4 [4]
000000 3a 6a 00 3f 14 13 94 3c 95 09 b6 3e f5 a9 76 3e
       0.5016209 0.018075503 0.35554186 0.24088271
